…
s_lr=0.1, box=7.5, cls=0.5, dfl=1.5, pose=12.0, kobj=1.0, label_smoothing=0.0, nbs=64, hsv_h=0.015, hsv_s=0.7, hsv_v=0.4, degrees=0.0, translate=0.1, scale=0.5, shear=0.0, perspective=0.0, flipud=0.0, fliplr=0.5, mosaic=1.0, mixup=0.0, copy_paste=0.0, auto_augment=randaugment, erasing=0.4, crop_fraction=1.0, cfg=None, tracker=botsort.yaml, save_dir=runs/train/yolo_training_20260401_074739
[07:48:24] [训练] Overriding model.yaml nc=80 with nc=1
[07:48:24] [训练] from  n    params  module                                       arguments
[07:48:24] [训练] 0                  -1  1       928  ultralytics.nn.modules.conv.Conv             [3, 32, 3, 2]
[07:48:24] [训练] 1                  -1  1     18560  ultralytics.nn.modules.conv.Conv             [32, 64, 3, 2]
[07:48:24] [训练] 2                  -1  1     29056  ultralytics.nn.modules.block.C2f             [64, 64, 1, True]
[07:48:24] [训练] 3                  -1  1     73984  ultralytics.nn.modules.conv.Conv             [64, 128, 3, 2]
[07:48:24] [训练] 4                  -1  2    197632  ultralytics.nn.modules.block.C2f             [128, 128, 2, True]
[07:48:24] [训练] 5                  -1  1    295424  ultralytics.nn.modules.conv.Conv             [128, 256, 3, 2]
[07:48:24] [训练] 6                  -1  2    788480  ultralytics.nn.modules.block.C2f             [256, 256, 2, True]
[07:48:24] [训练] 7                  -1  1   1180672  ultralytics.nn.modules.conv.Conv             [256, 512, 3, 2]
[07:48:24] [训练] 8                  -1  1   1838080  ultralytics.nn.modules.block.C2f             [512, 512, 1, True]
[07:48:24] [训练] 9                  -1  1    656896  ultralytics.nn.modules.block.SPPF            [512, 512, 5]
[07:48:24] [训练] 10                  -1  1         0  torch.nn.modules.upsampling.Upsample         [None, 2, 'nearest']
[07:48:24] [训练] 11             [-1, 6]  1         0  ultralytics.nn.modules.conv.Concat           [1]
[07:48:24] [训练] 12                  -1  1    591360  ultralytics.nn.modules.block.C2f             [768, 256, 1]
[07:48:24] [训练] 13                  -1  1         0  torch.nn.modules.upsampling.Upsample         [None, 2, 'nearest']
[07:48:24] [训练] 14             [-1, 4]  1         0  ultralytics.nn.modules.conv.Concat           [1]
[07:48:24] [训练] 15                  -1  1    148224  ultralytics.nn.modules.block.C2f             [384, 128, 1]
[07:48:24] [训练] 16                  -1  1    147712  ultralytics.nn.modules.conv.Conv             [128, 128, 3, 2]
[07:48:24] [训练] 17            [-1, 12]  1         0  ultralytics.nn.modules.conv.Concat           [1]
[07:48:25] [训练] 18                  -1  1    493056  ultralytics.nn.modules.block.C2f             [384, 256, 1]
[07:48:25] [训练] 19                  -1  1    590336  ultralytics.nn.modules.conv.Conv             [256, 256, 3, 2]
[07:48:25] [训练] 20             [-1, 9]  1         0  ultralytics.nn.modules.conv.Concat           [1]
[07:48:25] [训练] 21                  -1  1   1969152  ultralytics.nn.modules.block.C2f             [768, 512, 1]
[07:48:25] [训练] 22        [15, 18, 21]  1   2116435  ultralytics.nn.modules.head.Detect           [1, [128, 256, 512]]
[07:48:25] [训练] Model summary: 225 layers, 11135987 parameters, 11135971 gradients, 28.6 GFLOPs
[07:48:25] [训练] Transferred 349/355 items from pretrained weights
[07:48:25] [训练] Freezing layer 'model.22.dfl.conv.weight'
[07:48:25] [训练] [34m[1mAMP: [0mrunning Automatic Mixed Precision (AMP) checks with YOLOv8n...
[07:48:25] [训练] /root/miniforge3/lib/python3.10/site-packages/ultralytics/nn/tasks.py:634: UserWarning: Environment variable TORCH_FORCE_NO_WEIGHTS_ONLY_LOAD detected, since the`weights_only` argument was not explicitly passed to `torch.load`, forcing weights_only=False.
…
